#loc = loc("/mnt/d/work/git/vTriton/temp_triton_ascend_fused_attention_probe.py":81:0)
#loc1 = loc(unknown)
#loc5 = loc("/mnt/d/work/git/vTriton/temp_triton_ascend_fused_attention_probe.py":157:50)
#loc26 = loc("/mnt/d/work/git/vTriton/temp_triton_ascend_fused_attention_probe.py":45:46)
#loc34 = loc("/mnt/d/work/git/vTriton/temp_triton_ascend_fused_attention_probe.py":56:25)
#loc58 = loc(callsite(#loc1 at #loc26))
#loc66 = loc(callsite(#loc1 at #loc34))
#loc75 = loc(callsite(#loc58 at #loc5))
#loc78 = loc(callsite(#loc66 at #loc5))
module attributes {hacc.target = #hacc.target<"Ascend910B3">} {
  tt.func public @_attn_fwd(%arg0: !tt.ptr<f16> loc("/mnt/d/work/git/vTriton/temp_triton_ascend_fused_attention_probe.py":81:0), %arg1: !tt.ptr<f16> loc("/mnt/d/work/git/vTriton/temp_triton_ascend_fused_attention_probe.py":81:0), %arg2: !tt.ptr<f16> loc("/mnt/d/work/git/vTriton/temp_triton_ascend_fused_attention_probe.py":81:0), %arg3: !tt.ptr<f32> loc("/mnt/d/work/git/vTriton/temp_triton_ascend_fused_attention_probe.py":81:0), %arg4: !tt.ptr<f16> loc("/mnt/d/work/git/vTriton/temp_triton_ascend_fused_attention_probe.py":81:0), %arg5: !tt.ptr<f32> loc("/mnt/d/work/git/vTriton/temp_triton_ascend_fused_attention_probe.py":81:0), %arg6: f32 loc("/mnt/d/work/git/vTriton/temp_triton_ascend_fused_attention_probe.py":81:0)) attributes {noinline = false} {
    %cst = arith.constant dense<0.000000e+00> : tensor<32x1xf32> loc(#loc1)
    %cst_0 = arith.constant dense<0xFF800000> : tensor<32xf32> loc(#loc1)
    %cst_1 = arith.constant dense<0.000000e+00> : tensor<32x128xf32> loc(#loc1)
    %c20_i32 = arith.constant 20 : i32 loc(#loc1)
    %c128_i32 = arith.constant 128 : i32 loc(#loc1)
    %c0_i32 = arith.constant 0 : i32 loc(#loc1)
    %c1_i64 = arith.constant 1 : i64 loc(#loc1)
    %c128_i64 = arith.constant 128 : i64 loc(#loc1)
    %c32_i32 = arith.constant 32 : i32 loc(#loc1)
    %c16384_i64 = arith.constant 16384 : i64 loc(#loc1)
    %c4_i32 = arith.constant 4 : i32 loc(#loc1)
    %0 = tt.get_program_id x : i32 loc(#loc2)
    %1 = tt.make_range {end = 32 : i32, start = 0 : i32} : tensor<32xi32> loc(#loc3)
    %2 = tt.splat %arg6 : f32 -> tensor<32x128xf32> loc(#loc53)
    scf.for %arg7 = %0 to %c4_i32 step %c20_i32  : i32 {
      %3 = arith.divsi %arg7, %c4_i32 : i32 loc(#loc7)
      %4 = arith.remsi %arg7, %c4_i32 : i32 loc(#loc8)
      %5 = arith.extsi %3 : i32 to i64 loc(#loc9)
      %6 = arith.muli %5, %c16384_i64 : i64 loc(#loc10)
      %7 = tt.addptr %arg0, %6 : !tt.ptr<f16>, i64 loc(#loc11)
      %8 = arith.muli %4, %c32_i32 : i32 loc(#loc12)
      %9 = tt.make_tensor_ptr %7, [%c128_i64, %c128_i64], [%c128_i64, %c1_i64], [%8, %c0_i32] {order = array<i32: 1, 0>} : <tensor<32x128xf16>> loc(#loc13)
      %10 = tt.addptr %arg2, %6 : !tt.ptr<f16>, i64 loc(#loc14)
      %11 = tt.make_tensor_ptr %10, [%c128_i64, %c128_i64], [%c128_i64, %c1_i64], [%c0_i32, %c0_i32] {order = array<i32: 1, 0>} : <tensor<128x128xf16>> loc(#loc15)
      %12 = tt.addptr %arg1, %6 : !tt.ptr<f16>, i64 loc(#loc16)
      %13 = tt.make_tensor_ptr %12, [%c128_i64, %c128_i64], [%c128_i64, %c1_i64], [%c0_i32, %c0_i32] {order = array<i32: 1, 0>} : <tensor<128x128xf16>> loc(#loc17)
      %14 = tt.addptr %arg4, %6 : !tt.ptr<f16>, i64 loc(#loc18)
      %15 = tt.make_tensor_ptr %14, [%c128_i64, %c128_i64], [%c128_i64, %c1_i64], [%8, %c0_i32] {order = array<i32: 1, 0>} : <tensor<32x128xf16>> loc(#loc19)
      %16 = tt.splat %8 : i32 -> tensor<32xi32> loc(#loc20)
      %17 = arith.addi %16, %1 : tensor<32xi32> loc(#loc20)
      %18 = tt.load %9 : !tt.ptr<tensor<32x128xf16>> loc(#loc21)
      %19 = tt.load %13 : !tt.ptr<tensor<128x128xf16>> loc(#loc54)
      %20 = tt.trans %19 {order = array<i32: 1, 0>} : tensor<128x128xf16> -> tensor<128x128xf16> loc(#loc55)
      %21 = tt.dot %18, %20, %cst_1 : tensor<32x128xf16> * tensor<128x128xf16> -> tensor<32x128xf32> loc(#loc56)
      %22 = arith.mulf %21, %2 : tensor<32x128xf32> loc(#loc53)
      %23 = "tt.reduce"(%22) <{axis = 1 : i32}> ({
      ^bb0(%arg8: f32 loc(callsite(#loc58 at #loc5)), %arg9: f32 loc(callsite(#loc58 at #loc5))):
        %48 = arith.maxnumf %arg8, %arg9 : f32 loc(#loc80)
        tt.reduce.return %48 : f32 loc(#loc74)
      }) : (tensor<32x128xf32>) -> tensor<32xf32> loc(#loc74)
      %24 = tt.expand_dims %23 {axis = 1 : i32} : tensor<32xf32> -> tensor<32x1xf32> loc(#loc60)
      %25 = tt.broadcast %24 : tensor<32x1xf32> -> tensor<32x128xf32> loc(#loc61)
      %26 = arith.subf %22, %25 : tensor<32x128xf32> loc(#loc61)
      %27 = math.exp %26 : tensor<32x128xf32> loc(#loc62)
      %28 = arith.truncf %27 : tensor<32x128xf32> to tensor<32x128xf16> loc(#loc63)
      %29 = tt.load %11 : !tt.ptr<tensor<128x128xf16>> loc(#loc64)
      %30 = "tt.reduce"(%27) <{axis = 1 : i32}> ({
      ^bb0(%arg8: f32 loc(callsite(#loc66 at #loc5)), %arg9: f32 loc(callsite(#loc66 at #loc5))):
        %48 = arith.addf %arg8, %arg9 : f32 loc(#loc81)
        tt.reduce.return %48 : f32 loc(#loc77)
      }) : (tensor<32x128xf32>) -> tensor<32xf32> loc(#loc77)
      %31 = arith.subf %cst_0, %23 : tensor<32xf32> loc(#loc68)
      %32 = math.exp %31 : tensor<32xf32> loc(#loc69)
      %33 = arith.addf %32, %30 : tensor<32xf32> loc(#loc70)
      %34 = tt.expand_dims %32 {axis = 1 : i32} : tensor<32xf32> -> tensor<32x1xf32> loc(#loc71)
      %35 = arith.mulf %34, %cst : tensor<32x1xf32> loc(#loc72)
      %36 = tt.broadcast %35 : tensor<32x1xf32> -> tensor<32x128xf32> loc(#loc72)
      %37 = tt.dot %28, %29, %36 : tensor<32x128xf16> * tensor<128x128xf16> -> tensor<32x128xf32> loc(#loc73)
      %38 = math.log %33 : tensor<32xf32> loc(#loc42)
      %39 = arith.addf %23, %38 : tensor<32xf32> loc(#loc43)
      %40 = tt.expand_dims %33 {axis = 1 : i32} : tensor<32xf32> -> tensor<32x1xf32> loc(#loc44)
      %41 = tt.broadcast %40 : tensor<32x1xf32> -> tensor<32x128xf32> loc(#loc45)
      %42 = arith.divf %37, %41 : tensor<32x128xf32> loc(#loc45)
      %43 = arith.muli %3, %c128_i32 : i32 loc(#loc46)
      %44 = tt.addptr %arg3, %43 : !tt.ptr<f32>, i32 loc(#loc47)
      %45 = tt.splat %44 : !tt.ptr<f32> -> tensor<32x!tt.ptr<f32>> loc(#loc48)
      %46 = tt.addptr %45, %17 : tensor<32x!tt.ptr<f32>>, tensor<32xi32> loc(#loc48)
      tt.store %46, %39 : tensor<32x!tt.ptr<f32>> loc(#loc49)
      %47 = arith.truncf %42 : tensor<32x128xf32> to tensor<32x128xf16> loc(#loc50)
      tt.store %15, %47 : !tt.ptr<tensor<32x128xf16>> loc(#loc51)
    } loc(#loc6)
    tt.return loc(#loc52)
  } loc(#loc)
} loc(#loc)
#loc2 = loc("/mnt/d/work/git/vTriton/temp_triton_ascend_fused_attention_probe.py":94:24)
#loc3 = loc("/mnt/d/work/git/vTriton/temp_triton_ascend_fused_attention_probe.py":134:53)
#loc4 = loc("/mnt/d/work/git/vTriton/temp_triton_ascend_fused_attention_probe.py":44:22)
#loc6 = loc("/mnt/d/work/git/vTriton/temp_triton_ascend_fused_attention_probe.py":96:44)
#loc7 = loc("/mnt/d/work/git/vTriton/temp_triton_ascend_fused_attention_probe.py":97:35)
#loc8 = loc("/mnt/d/work/git/vTriton/temp_triton_ascend_fused_attention_probe.py":98:33)
#loc9 = loc("/mnt/d/work/git/vTriton/temp_triton_ascend_fused_attention_probe.py":101:30)
#loc10 = loc("/mnt/d/work/git/vTriton/temp_triton_ascend_fused_attention_probe.py":101:42)
#loc11 = loc("/mnt/d/work/git/vTriton/temp_triton_ascend_fused_attention_probe.py":103:21)
#loc12 = loc("/mnt/d/work/git/vTriton/temp_triton_ascend_fused_attention_probe.py":106:34)
#loc13 = loc("/mnt/d/work/git/vTriton/temp_triton_ascend_fused_attention_probe.py":108:12)
#loc14 = loc("/mnt/d/work/git/vTriton/temp_triton_ascend_fused_attention_probe.py":111:21)
#loc15 = loc("/mnt/d/work/git/vTriton/temp_triton_ascend_fused_attention_probe.py":116:12)
#loc16 = loc("/mnt/d/work/git/vTriton/temp_triton_ascend_fused_attention_probe.py":119:21)
#loc17 = loc("/mnt/d/work/git/vTriton/temp_triton_ascend_fused_attention_probe.py":124:12)
#loc18 = loc("/mnt/d/work/git/vTriton/temp_triton_ascend_fused_attention_probe.py":127:23)
#loc19 = loc("/mnt/d/work/git/vTriton/temp_triton_ascend_fused_attention_probe.py":132:12)
#loc20 = loc("/mnt/d/work/git/vTriton/temp_triton_ascend_fused_attention_probe.py":134:40)
#loc21 = loc("/mnt/d/work/git/vTriton/temp_triton_ascend_fused_attention_probe.py":150:20)
#loc22 = loc("/mnt/d/work/git/vTriton/temp_triton_ascend_fused_attention_probe.py":35:20)
#loc23 = loc("/mnt/d/work/git/vTriton/temp_triton_ascend_fused_attention_probe.py":36:27)
#loc24 = loc("/mnt/d/work/git/vTriton/temp_triton_ascend_fused_attention_probe.py":37:23)
#loc25 = loc("/home/shane/venvs/triton-ascend/lib/python3.12/site-packages/triton/language/standard.py":193:44)
#loc27 = loc("/home/shane/venvs/triton-ascend/lib/python3.12/site-packages/triton/language/standard.py":164:27)
#loc28 = loc("/mnt/d/work/git/vTriton/temp_triton_ascend_fused_attention_probe.py":46:27)
#loc29 = loc("/mnt/d/work/git/vTriton/temp_triton_ascend_fused_attention_probe.py":46:22)
#loc30 = loc("/mnt/d/work/git/vTriton/temp_triton_ascend_fused_attention_probe.py":48:24)
#loc31 = loc("/mnt/d/work/git/vTriton/temp_triton_ascend_fused_attention_probe.py":52:26)
#loc32 = loc("/mnt/d/work/git/vTriton/temp_triton_ascend_fused_attention_probe.py":54:20)
#loc33 = loc("/home/shane/venvs/triton-ascend/lib/python3.12/site-packages/triton/language/standard.py":282:36)
#loc35 = loc("/home/shane/venvs/triton-ascend/lib/python3.12/site-packages/triton/language/standard.py":271:15)
#loc36 = loc("/mnt/d/work/git/vTriton/temp_triton_ascend_fused_attention_probe.py":57:34)
#loc37 = loc("/mnt/d/work/git/vTriton/temp_triton_ascend_fused_attention_probe.py":57:28)
#loc38 = loc("/mnt/d/work/git/vTriton/temp_triton_ascend_fused_attention_probe.py":58:28)
#loc39 = loc("/mnt/d/work/git/vTriton/temp_triton_ascend_fused_attention_probe.py":61:38)
#loc40 = loc("/mnt/d/work/git/vTriton/temp_triton_ascend_fused_attention_probe.py":61:32)
#loc41 = loc("/mnt/d/work/git/vTriton/temp_triton_ascend_fused_attention_probe.py":62:40)
#loc42 = loc("/mnt/d/work/git/vTriton/temp_triton_ascend_fused_attention_probe.py":167:27)
#loc43 = loc("/mnt/d/work/git/vTriton/temp_triton_ascend_fused_attention_probe.py":167:15)
#loc44 = loc("/mnt/d/work/git/vTriton/temp_triton_ascend_fused_attention_probe.py":169:40)
#loc45 = loc("/mnt/d/work/git/vTriton/temp_triton_ascend_fused_attention_probe.py":169:36)
#loc46 = loc("/mnt/d/work/git/vTriton/temp_triton_ascend_fused_attention_probe.py":177:35)
#loc47 = loc("/mnt/d/work/git/vTriton/temp_triton_ascend_fused_attention_probe.py":177:21)
#loc48 = loc("/mnt/d/work/git/vTriton/temp_triton_ascend_fused_attention_probe.py":177:43)
#loc49 = loc("/mnt/d/work/git/vTriton/temp_triton_ascend_fused_attention_probe.py":178:25)
#loc50 = loc("/mnt/d/work/git/vTriton/temp_triton_ascend_fused_attention_probe.py":179:45)
#loc51 = loc("/mnt/d/work/git/vTriton/temp_triton_ascend_fused_attention_probe.py":179:30)
#loc52 = loc("/mnt/d/work/git/vTriton/temp_triton_ascend_fused_attention_probe.py":96:4)
#loc53 = loc(callsite(#loc4 at #loc5))
#loc54 = loc(callsite(#loc22 at #loc5))
#loc55 = loc(callsite(#loc23 at #loc5))
#loc56 = loc(callsite(#loc24 at #loc5))
#loc57 = loc(callsite(#loc25 at #loc26))
#loc59 = loc(callsite(#loc27 at #loc25))
#loc60 = loc(callsite(#loc28 at #loc5))
#loc61 = loc(callsite(#loc29 at #loc5))
#loc62 = loc(callsite(#loc30 at #loc5))
#loc63 = loc(callsite(#loc31 at #loc5))
#loc64 = loc(callsite(#loc32 at #loc5))
#loc65 = loc(callsite(#loc33 at #loc34))
#loc67 = loc(callsite(#loc35 at #loc33))
#loc68 = loc(callsite(#loc36 at #loc5))
#loc69 = loc(callsite(#loc37 at #loc5))
#loc70 = loc(callsite(#loc38 at #loc5))
#loc71 = loc(callsite(#loc39 at #loc5))
#loc72 = loc(callsite(#loc40 at #loc5))
#loc73 = loc(callsite(#loc41 at #loc5))
#loc74 = loc(callsite(#loc57 at #loc5))
#loc76 = loc(callsite(#loc59 at #loc26))
#loc77 = loc(callsite(#loc65 at #loc5))
#loc79 = loc(callsite(#loc67 at #loc34))
#loc80 = loc(callsite(#loc76 at #loc5))
#loc81 = loc(callsite(#loc79 at #loc5))
